diabetes_model.pth (torch, 5256 bytes, 3 tensors)

net.0.weight f4 [64, 10]
0	0x3ebf2e09	0.3733981
1	0x3e67c318	0.22633016
2	0x3e3d2d69	0.18474354
3	0x3f05e912	0.5230876
4	0xbda19d08	-0.078912795
5	0x3ea97abc	0.3310145
6	0xbe8949f6	-0.2681424
7	0x3e6197e2	0.22030595
8	0x3e96d1eb	0.2945703
9	0xbeb1f3bb	-0.34756264
10	0x3de36492	0.11103167
11	0x3e384fa8	0.17999136
12	0x3e0282cf	0.12745212
13	0x3d578df0	0.052625597
14	0x3e4137c7	0.18868934
15	0x3da01f46	0.07818465
16	0x3e2d8530	0.16945338
17	0x3e1a49e9	0.15067257
18	0xbe491acb	-0.19639127
19	0x3dca72bd	0.09885166
20	0xbe0f0b13	-0.13969068
21	0xbcc5a327	-0.024125649
22	0x3e4fcc0d	0.20292683
23	0x3e791fe7	0.24328576
24	0xbd69f909	-0.057122264
25	0x3dd3dd35	0.10344926
26	0xbdd16920	-0.10225129
27	0xbefc9ced	-0.49338475
28	0x3eb3dea9	0.35130814
29	0xbec43752	-0.38323456
30	0x3ee5ca0c	0.44880712
31	0xbdcdd586	-0.10050492
32	0x3d7fada5	0.06242146
33	0xbdbeb0df	-0.09311079
34	0xbe990630	-0.29887533
35	0x3ce92199	0.028458403
36	0x3e5e0a03	0.21683507
37	0x3e109ffc	0.14123529
38	0x3ea1936c	0.31557786
39	0x3c8511ba	0.016243804
40	0x3df2898b	0.118426405
41	0x3ccb4657	0.024813814
42	0x3da44e67	0.080227666
43	0x3ef585ea	0.4795373
44	0x3e258b21	0.16166355
45	0xbde43f03	-0.11144831
46	0x3daeef19	0.08541698
47	0xbe3fb3fc	-0.18721002
48	0x3e3f2113	0.1866496
49	0xbd96af70	-0.07357681
50	0xbe89d980	-0.26923752
51	0xbdf77308	-0.12082487
52	0xbe25b2fe	-0.16181561
53	0x3e78dd1c	0.24303097
54	0x3d87567d	0.06608293
55	0x3de4d3ff	0.111732475
56	0x3dcf6eeb	0.10128578
57	0xbcd61f42	-0.026137952
58	0x3e84b9a4	0.25922883
59	0xbe41c069	-0.18921055
60	0x3c8bd1c6	0.017067801
61	0x3d29372e	0.04131239
62	0x3def9e3d	0.117001034
63	0x3b3fd3ed	0.0029270605
64	0x3b589ee4	0.003305369
65	0xbca8f2d7	-0.020623608
66	0x3e55583a	0.20834437
67	0xbdacfeff	-0.08447074
68	0xbe92ce20	-0.28672886
69	0xbda0299c	-0.07820436
70	0x3ebd3d2b	0.3696073
71	0x3d5caf4f	0.053878125
72	0x3e0afc2b	0.13572757
73	0xbe5380ab	-0.20654552
74	0xbef33d29	-0.475076
75	0xbe8864bb	-0.2663935
76	0xbcb64826	-0.0222512
77	0x3dbb53fd	0.09146879
78	0x3dfd7542	0.12375881
79	0x3e97fbfc	0.29684436
80	0xbe1691ff	-0.1470413
81	0xbe665462	-0.22493127
82	0x3e31cd81	0.1736355
83	0xbdf9a18d	-0.121890165
84	0x3e3c9323	0.18415503
85	0x3d1623e9	0.03665534
86	0xbdb23e72	-0.08703317
87	0xbe0a8a48	-0.13529313
88	0xbdf57ee2	-0.119870916
89	0x3e331d01	0.17491533
90	0x3e03cdb2	0.12871435
91	0xbd9aebc5	-0.07564501
92	0x3e741893	0.238375
93	0x3e90a20b	0.2824863
94	0xbe3df4dc	-0.18550438
95	0xbe72adaa	-0.2369906
96	0x3eaa77ee	0.33294624
97	0xbd3e9bd3	-0.046535324
98	0x3e016925	0.12637766
99	0xbe823e72	-0.25438267
100	0xbde5474f	-0.11195242
101	0xbc3fb0f7	-0.011699907
102	0x3cf23890	0.029567987
103	0xbe97c6bf	-0.2964382
104	0x3e18df1d	0.14928861
105	0xbe453fb5	-0.19262584
106	0xbe082c76	-0.1329821
107	0xbd849db5	-0.06475393
108	0xbd67e138	-0.05661127
109	0xbdcc373d	-0.09971473
110	0x3ebff315	0.37490144
111	0x3da113af	0.078650825
112	0xbd6edacc	-0.05831413
113	0xbe7c5e28	-0.24645293
114	0xbde799f7	-0.11308663
115	0xbd7d3961	-0.0618223
116	0x3df3655a	0.11884566
117	0xbe7f0372	-0.24903658
118	0xbe176d33	-0.1478775
119	0xbdc45cb6	-0.09587996
120	0xba726b82	-0.00092475873
121	0xbde6ee47	-0.112759165
122	0xbd3d71c6	-0.04625108
123	0xbe2e94c6	-0.1704894
124	0xbe500f57	-0.20318352
125	0xbd1914c5	-0.037373323
126	0xbe24558b	-0.16048257
127	0xbe8c68ae	-0.27423614
128	0x3e469c76	0.19395623
129	0xbdd78946	-0.1052423
130	0x3e8c434e	0.273951
131	0xbc9705ca	-0.018435378
132	0xbe99ea44	-0.30061543
133	0x3e0b0943	0.13577752
134	0x3dc0b1e9	0.09408934
135	0x3d635102	0.055497177
136	0xbe2cf056	-0.16888556
137	0xbe8c9d92	-0.27463967
138	0x3cafe851	0.021473082
139	0xbda85d5a	-0.082209304
140	0x3dd4c4bc	0.103890866
141	0xbe53d962	-0.20688394
142	0x3e575176	0.21027169
143	0xbe525a11	-0.2054217
144	0xbd940ccd	-0.07229004
145	0x3da3a6a5	0.07990769
146	0x3df76f80	0.12081814
147	0x3e9396e5	0.2882606
148	0x3e22d232	0.15900496
149	0xbe4652b0	-0.1936748
150	0x3d483021	0.048874024
151	0x3cda9194	0.026680745
152	0x3d04b836	0.03240224
153	0xbe5690fa	-0.20953742
154	0x3e77f4f9	0.24214543
155	0xbe733900	-0.23752213
156	0x3d133ad6	0.035944782
157	0x3e6438e8	0.22287333
158	0x3d02157a	0.031758763
159	0xbdc02da9	-0.09383709
160	0x3ea6107e	0.32434458
161	0x3c1f53ef	0.009724601
162	0xbdb83e2c	-0.08996233
163	0xbe9ee9b7	-0.31037685
164	0x3e4ee5ec	0.20204896
165	0xbe0b4c32	-0.13603285
166	0xbe0105e8	-0.1259991
167	0x3e860d9d	0.2618226
168	0x3e3e649c	0.18593067
169	0xbeaae08d	-0.33374444
170	0xbd74a073	-0.05972333
171	0x3ad44782	0.0016195627
172	0x3e0c59fd	0.13706203
173	0xbc91d379	-0.017801033
174	0xbe810b17	-0.25203773
175	0xbddb3c32	-0.10704841
176	0xbe42a8fb	-0.19009773
177	0x3c5cac4c	0.013468813
178	0x3e72324c	0.23651999
179	0xbe95cc45	-0.29257408
180	0x3d124e3b	0.035719138
181	0x3ee13a85	0.4398996
182	0x3e681bdf	0.22666882
183	0xbee2f905	-0.44330612
184	0x3e1fbb02	0.15598682
185	0x3e8c2599	0.27372435
186	0x3dab116c	0.08352932
187	0xbd6a556f	-0.057210382
188	0xbd6272c8	-0.055285245
189	0xbd339a38	-0.043848246
190	0xbdf1ee14	-0.11812988
191	0xbe2d54e9	-0.16926922
192	0x3d36537b	0.044513207
193	0x3d64c6b7	0.05585357
194	0xbd5203d7	-0.051273193
195	0x3d376a02	0.04477883
196	0x3dbb8d1b	0.09157773
197	0xbdb9ccd3	-0.0907227
198	0x3f04b3fe	0.51837146
199	0x3eb4c94d	0.3530983
200	0xbed8041f	-0.42190644
201	0xbe058431	-0.13038708
202	0x3ddd08d7	0.10792702
203	0xbc102d21	-0.008799822
204	0x3d0686e9	0.032843504
205	0xbd556e7a	-0.05210731
206	0xbe9faf1c	-0.31188285
207	0xbebc7e81	-0.36815265
208	0xbd97712e	-0.07394634
209	0x3e080924	0.13284737
210	0x3e6982fd	0.22803874
211	0x3c99e223	0.018784588
212	0xbe04c793	-0.12966757
213	0xbe95547f	-0.29166028
214	0xbdc0f8cd	-0.09422455
215	0x3ecc14c3	0.3985959
216	0xbc9b4cf2	-0.018957589
217	0xbbc56260	-0.00602369
218	0x3dacda3e	0.08440064
219	0xbdd9df19	-0.106382556
220	0xbe2e9f1d	-0.17052884
221	0x3e9e6b1c	0.30941093
222	0xbd564217	-0.052309122
223	0x3cca891c	0.024723582
224	0xbe5cee9f	-0.21575402
225	0x3e9d4dec	0.30723512
226	0x3e7475fa	0.2387313
227	0x3e550549	0.20802797
228	0xbd980e55	-0.074246086
229	0xbe96e234	-0.29469454
230	0xbddb9bb8	-0.1072306
231	0x3e225cc3	0.15855698
232	0x3ca1cd99	0.019751357
233	0x3e1e8e4c	0.1548397
234	0x3e509ce2	0.20372346
235	0x3e047933	0.12936859
236	0xbcd8263f	-0.026385425
237	0xbe759a5b	-0.23984663
238	0xbea1fbac	-0.31637323
239	0xbe230306	-0.15919122
240	0x3e3ecd27	0.18632947
241	0xbe23fed8	-0.16015184
242	0xbd98f1a8	-0.07467967
243	0xbdaf5c81	-0.085625656
244	0x3b7b3426	0.0038330643
245	0xbe41d27b	-0.18927948
246	0xbe94fee1	-0.29100707
247	0x3c8d5f5f	0.01725739
248	0xbd8cdf76	-0.06878559
249	0x3dbf76c1	0.093488224
250	0xbd323095	-0.043503363
251	0xbdc8d808	-0.0980683
252	0xbc6621b8	-0.014046125
253	0xbdbe018f	-0.09277641
254	0x3d96bfeb	0.07360824
255	0xbe41f96a	-0.189428

net.0.bias f4 [64]
0	0xbea61b17	-0.32442543
1	0xbef0dea5	-0.47044864
2	0xbe248e96	-0.16070017
3	0x3e3557d3	0.17709284
4	0xbf16a208	-0.5884099
5	0xbe8e30b9	-0.27771547
6	0x3dd3c4a8	0.103402436
7	0xbd33711d	-0.043809045
8	0xbe26f0eb	-0.1630284
9	0xbec7c9b4	-0.39021075
10	0x3e06d235	0.13166125
11	0xbe742616	-0.23842654
12	0x3ca918d3	0.02064172
13	0xbd6de19c	-0.058076486
14	0xbd6c647f	-0.057713028
15	0x3dbe82f4	0.09302321
16	0xbdfa22b2	-0.12213649
17	0xbe0f0b08	-0.13969052
18	0xbea4b651	-0.32170346
19	0x3e4139a8	0.1886965
20	0xbe4aa828	-0.19790709
21	0xbb6d89aa	-0.0036245384
22	0xbedf8367	-0.4365494
23	0x39d282d4	0.00040151796
24	0xbd736217	-0.059419718
25	0xbd3d8b85	-0.046275634
26	0x3d2eaf68	0.04264775
27	0xbdce2f33	-0.10067596
28	0xbc45a4b1	-0.012063191
29	0xbed5e087	-0.41772863
30	0xbe1b9735	-0.151944
31	0xbd970b74	-0.073752314
32	0x3d2d2bcc	0.042278096
33	0x3e69c24c	0.22828025
34	0xbebf8a40	-0.37410164
35	0x3d1d8810	0.038459837
36	0xbdbe08d2	-0.09279026
37	0xbe2ddff1	-0.16979958
38	0xbeb55e3b	-0.35423455
39	0xbc2672ce	-0.0101592075
40	0x3dc51fe7	0.096252255
41	0xbd92c436	-0.071663305
42	0xbe792dce	-0.2433388
43	0xbe0e6039	-0.13903894
44	0xbe9fb29f	-0.31190965
45	0x3dc775b0	0.09739244
46	0xbe924302	-0.28566748
47	0xbdf43d9c	-0.119258136
48	0xbe1b6ba0	-0.15177774
49	0xbe52ad24	-0.2057386
50	0xbd17023c	-0.036867365
51	0x3dd1a153	0.10235848
52	0xbd8d5d8a	-0.06902607
53	0x3d864628	0.0655635
54	0xbdc0a3b6	-0.094062254
55	0x3da71548	0.08158356
56	0x3e38db3d	0.18052383
57	0x3e39478a	0.18093696
58	0xbe626fd6	-0.22112975
59	0x3ddf916f	0.10916411
60	0x3de27ffe	0.11059569
61	0xbe98ff7e	-0.29882425
62	0xbe2aad67	-0.1666771
63	0xbe99deeb	-0.30052885

net.2.weight f4 [1, 64]
0	0x3eeb1f40	0.4592228
1	0xbe6f4285	-0.23365219
2	0x3e76f691	0.24117495
3	0x3e9d51dc	0.30726516
4	0x3ea6f5d0	0.32609415
5	0xbe4cd74c	-0.20004004
6	0xbdfbebc2	-0.123008266
7	0x3e8940f5	0.2680737
8	0x3e0462a7	0.12928258
9	0xbe960bc1	-0.29305843
10	0xbe2bd9ca	-0.16782299
11	0x3e2c1156	0.16803488
12	0x3e4b92f6	0.1988028
13	0x3e0a4132	0.13501433
14	0xbdd69585	-0.10477737
15	0xbd8d0e8e	-0.06887542
16	0xbe941a60	-0.28926373
17	0x3df5771d	0.1198561
18	0xbebaa691	-0.36455205
19	0x3e45aabe	0.19303414
20	0x3e41aca4	0.18913513
21	0xbe13cdde	-0.14434001
22	0xbe5068fb	-0.20352547
23	0x3de1b648	0.110210955
24	0xbe3500dd	-0.1767611
25	0xbe629ed4	-0.221309
26	0xbe124929	-0.14285721
27	0xbdc02313	-0.0938169
28	0x3e6d2c3e	0.23161408
29	0x3ea521a3	0.32252225
30	0x3e56af69	0.20965351
31	0x3cdee0c7	0.027206792
32	0x3e0e9a19	0.13925971
33	0xbd9012b2	-0.07034816
34	0xbe440cbd	-0.19145484
35	0x3d886556	0.06659953
36	0xbe9239a5	-0.28559604
37	0x3eead606	0.45866412
38	0x3dffd2b5	0.12491361
39	0x3ef0bbcb	0.47018275
40	0xbe979013	-0.29602107
41	0x3d5bfeb2	0.053709693
42	0xbe167886	-0.14694414
43	0xbef61761	-0.48064712
44	0xbef7924a	-0.48353797
45	0x3e3f7dd7	0.18700348
46	0x3e8a5870	0.27020597
47	0x3eb0ad87	0.3450739
48	0x3e5838b8	0.21115386
49	0xbdcbcb4d	-0.09950886
50	0x3d7d10b8	0.061783522
51	0xbe0d6f82	-0.13812068
52	0xbde0a069	-0.10968096
53	0x3e0124f6	0.12611756
54	0xbe1bbaaf	-0.15207933
55	0x3e5cd563	0.21565776
56	0xbeaa10df	-0.33215997
57	0xbe420f19	-0.18951072
58	0xbe2d65ec	-0.16933411
59	0xbda2bdf0	-0.07946384
60	0xbe9c4fec	-0.30529726
61	0xbe7116d9	-0.23543872
62	0x3df9e1ee	0.12201296
63	0x3eb49031	0.3526626
