pima_model.pth (torch, 3750 bytes, 5 tensors)

net.0.weight f4 [16, 8]
00000000: e831 fe3c 8350 06be b54d 26be 7af4 2cbe
00000010: 1ce6 aa3e 34b7 a3bd 906e 823e d47e 983e
00000020: 96c0 85bd bf07 c2bd 283c 6ebd 95df 2d3e
00000030: 4bdf fbbe 3fcb 22bd 0bf5 4abe 752c 8d3b
00000040: 267b c7bd 5416 93be 669e 98bc c684 3a3e
00000050: 57ab a8be 8da9 bcbe 8edc 64be f13b 93be
00000060: 9a84 53bd 6798 803c 7b43 0ebe 7714 bc3e
00000070: 903e a5be 7a90 dabe 499f b6be a3e9 f4be
00000080: 206d c2be f957 febe 46c2 a3be 6e70 ea3d
00000090: e168 803e 1cb0 683e 3597 5d3e 9638 63be
000000a0: 2157 60bd cbec babe 9486 283e 750e f6be
000000b0: c772 0d3e 0962 91bd 0ea1 203e 26af c9bc
000000c0: 2ade edbd 0727 f23e 928d 3b3e 578d 433e
000000d0: 0836 e63c 70c6 883e 16c7 813e 7c19 7d3e
000000e0: 6586 a03e 6a29 7b3d afdd 5e3e 35d5 a63d
000000f0: 6779 443e 93ac b83e 68c3 f43d cc62 5fbd
00000100: 5920 29be a94c 8bbc af96 e43d cbb2 06bd
00000110: 893e c33e acf3 623e 0379 a9be 2c39 57be
00000120: b067 a6bd 6c47 bbbe 53d3 1f3d f0fa 99bd
00000130: b15d 73be d10f 7bbe 1e61 4bbe f884 723e
00000140: a86c 3f3e cfcd 043f 514c 1b3e 2cb6 583d
00000150: 0562 1a3e 079f 223e a73c 80be 3d0e 6bbd
00000160: 072d 43be a3ca 28be 0748 8c3d 1ee6 fe3d
00000170: 5a51 623e 16e0 d0bd f065 6cbe e805 dcbe
00000180: 811d eabe e479 d1be 3ef4 1b3d fc06 7e3e
00000190: c380 ae3e aa0a 8abe 37a0 96bd 1a00 aabe
000001a0: 7668 46bd 7ef3 04bd 45ad cc3c 97e4 313d
000001b0: b099 8d3d 8462 8e3d fff4 f7bd 8489 b3be
000001c0: fde7 743d 888e 11be eace efbd 4bdd 253e
000001d0: 5f7f fbbc e83b 63bd f251 6dbe 215e cfbd
000001e0: b74c 88be e92f 523e 3b29 c63c a66c 353e
000001f0: 2be2 babc 3b3c 303d 4d6f 023e 0add b13e
0.031029657 -0.1311665 -0.1624058 -0.16890135 0.33378685 -0.079939276 0.25474977 0.29784262
-0.065308735 -0.09474134 -0.05816284 0.16979821 -0.49193797 -0.03974461 -0.19820039 0.004308278
-0.097402856 -0.28727973 -0.018630218 0.18214712 -0.32943222 -0.36848107 -0.2234976 -0.2875667
-0.05164013 0.015697671 -0.1389293 0.36734363 -0.32274294 -0.42688352 -0.356684 -0.478345
-0.3797388 -0.49676493 -0.31984156 0.114472255 0.25080016 0.2272343 0.21639712 -0.22189555
-0.054770593 -0.36508784 0.16457587 -0.48057905 0.13813315 -0.07098777 0.15686437 -0.02461965
-0.1161464 0.472954 0.18315724 0.19096886 0.028101936 0.26713896 0.25347203 0.24716753
0.31352535 0.061318792 0.21764253 0.08146135 0.19186936 0.36069164 0.11951333 -0.05453758
-0.16516246 -0.017004328 0.11161553 -0.032885354 0.38133648 0.22163266 -0.33100137 -0.21017903
-0.081252456 -0.36577928 0.039019894 -0.07518566 -0.23766209 -0.24517752 -0.19861266 0.23683536
0.18693793 0.5187654 0.15165831 0.052908108 0.15076454 0.15880977 -0.25046274 -0.057386626
-0.19060145 -0.1648355 0.068496756 0.12446235 0.22101346 -0.10198991 -0.23085761 -0.42973256
-0.45725635 -0.40913308 0.038074724 0.24807352 0.34082612 -0.2696126 -0.07354777 -0.33203202
-0.048439465 -0.032458775 0.024984965 0.04343089 0.06914079 0.06952384 -0.12107276 -0.35065854
0.059791554 -0.14214528 -0.117093876 0.16197698 -0.030700384 -0.055477053 -0.23175791 -0.101253755
-0.2662103 0.20526089 0.024189582 0.17717227 -0.022812923 0.04302619 0.1273777 0.34738952

net.0.bias f4 [16]
00000000: d4a3 1cbe d206 e93e f1d0 943e 8055 863c
00000010: e410 983e 1423 f9bb a77a 57bd 92a0 34be
00000020: ab74 90bd 2773 d03e d1a5 82be 5955 a93e
00000030: 349b c7bd 042e e63c e076 993d 7385 7c3e
-0.1529687 0.45513016 0.2906566 0.016398191 0.29700387 -0.0076030586 -0.052607205 -0.17639378
-0.07053503 0.40712854 -0.25517133 0.33072928 -0.097463995 0.028098114 0.07493377 0.24660282

net.2.weight f4 [8, 16]
00000000: 78b0 c0ba b862 8d3e f3f6 923e 7b38 ca3e
00000010: 3436 633e f698 993e 6462 68be be52 04be
00000020: f398 a43e 26fb 663d b496 d9bd fd40 463e
00000030: 7b3f f63e fe0a 153e ac69 d53c 831e 443c
00000040: 1c5f f83d c804 e23d 9c5d 103e 338e 9cbd
00000050: 0b6b 763d eeac 8dbe f97f 4e3e 507a 163e
00000060: 5170 3b3e 05eb 55be 3c5b 563d 491b 3d3c
00000070: 85a9 82be 6016 67be f69e 94be 651a 4f3d
00000080: efa7 3d3e 03ec 1c3e 240d 64bd 1b0c 7c3d
00000090: d39f 0ebe 0393 033d d5ca e53d 73b7 87bc
000000a0: 79f7 8d3e a0b1 6fbe 929e 373e 8a49 80be
000000b0: 5ea0 6fbd 2d0f bcbd 8ffa 2a3d 06d7 fabb
000000c0: e31d 0c3e eba0 5fbe 4256 e83d 5156 5ebe
000000d0: fb26 da3d 2ccc 07be dea7 443b d294 63bd
000000e0: ca7a 0b3e 07bd 263d 4fe3 73be 8221 d6bb
000000f0: 9ddb 53be ec22 243e 226c f9ba be72 9cbd
00000100: 63bd 0fbe ed9c c43d b1aa 80be 19b5 c23d
00000110: 4a1f 933d 3d71 a53d de9d 023e a058 6cbe
00000120: 64c6 203e 99d2 a6bd 6101 c5bc 55f1 acbd
00000130: 6415 c03d 9ff7 103e 6fbf 18bd a29b 103e
00000140: 6ec8 62be 3e01 3f3d 28b5 98be e3c3 853d
00000150: 6da5 65be 93fe 08be 228b 913e fa7e 833e
00000160: 8f2a 0fbe 558a 2cbe 0439 123e b775 413d
00000170: b242 fbbd 6e6a cdbd 45dc 6fbe 0d67 373e
00000180: b49e ad3e 59ec c23d 3fe9 cb3e ffff c73e
00000190: ad5e de3e 6ab3 5a3e 0801 0dbe 67c9 2c3e
000001a0: 2f13 803e 9462 013f bd96 4cbe 0acf ba3e
000001b0: 4b96 e43e 44cf 853d 122b 993e c0af 3cbc
000001c0: 3da2 763e 62d5 43bd 6072 84bd c712 ba3d
000001d0: 9246 72be e207 34be 0c50 393d f834 803e
000001e0: 28a9 583e 1156 80be 3c3b 363e be9a 30be
000001f0: 81f5 3bbe e050 4f3e bc43 3a3d 7f63 993d
-0.0014701029 0.2761438 0.28704032 0.39496216 0.22188646 0.29999512 -0.22693783 -0.12922189
0.3214794 0.056391858 -0.106244475 0.19360729 0.48095307 0.14554974 0.026051365 0.011970165
0.12127516 0.11036068 0.14098209 -0.0764431 0.060160678 -0.27670997 0.20166005 0.14695096
0.18304564 -0.20890434 0.0523331 0.01154215 -0.25519958 -0.22567129 -0.29027528 0.05056228
0.18521093 0.15324406 -0.055676594 0.061534982 -0.13928156 0.032122623 0.11220328 -0.016566968
0.2772787 -0.23407602 0.17931584 -0.25056106 -0.058502547 -0.09182582 0.041742858 -0.0076550273
0.13683276 -0.21838729 0.11344577 -0.21712615 0.10651966 -0.13261479 0.0030007283 -0.055561848
0.13621059 0.040707614 -0.2381718 -0.006534756 -0.20689245 0.16028947 -0.0019029418 -0.07639073
-0.14037089 0.09600244 -0.25130227 0.09507198 0.07183702 0.08078239 0.12755534 -0.23080683
0.1570068 -0.08145637 -0.02404851 -0.08444468 0.0937908 0.1415696 -0.03729194 0.14121869
-0.2214677 0.046632044 -0.2982571 0.06531503 -0.22426386 -0.13378362 0.28426462 0.25682813
-0.13981079 -0.16849644 0.14279562 0.047231402 -0.122685805 -0.100300655 -0.2342387 0.17910405
0.33910143 0.09517736 0.3982639 0.39062497 0.43431607 0.21357504 -0.13769925 0.16873704
0.25014636 0.50541043 -0.19979377 0.36486083 0.44645914 0.065336734 0.29915673 -0.011516511
0.24085326 -0.04781092 -0.06467128 0.09085613 -0.23659733 -0.17581132 0.045242354 0.25040412
0.21158278 -0.25065663 0.17796034 -0.1724653 -0.18355371 0.20245695 0.045474753 0.074896805

net.2.bias f4 [8]
00000000: e724 793e edaf e93c e6a5 093e 190b f8bd
00000010: bb7b 3cbe 4edb 303e ee2c 8a3e fa42 063e
0.24330483 0.02852627 0.13442191 -0.12111492 -0.18406574 0.17271158 0.26987404 0.13111487

net.4.weight f4 [1, 8]
00000000: f6af cfbe 515f 723e 19cd dc3e b1d9 3f3e
00000010: 6eb2 983d 9e4e f53e 6945 6abe b477 3d3e
-0.40563935 0.23669173 0.43125227 0.18735386 0.07455908 0.47911543 -0.2287804 0.18502694
